AI ChatBot/data.pth (torch, 5335 bytes, 6 tensors)

l1.weight f4 [8, 57]
0	0x3ecf53c4	0.40493596
1	0x3f3693d4	0.7131932
2	0x3d89df51	0.06732047
3	0xbb2a3b21	-0.0025975185
4	0xbee71cf2	-0.4513927
5	0x3ec4a0c4	0.38403904
6	0xbe518b6e	-0.20463344
7	0x3e2e89a7	0.17044698
8	0x3e285002	0.1643677
9	0x3e31e719	0.17373313
10	0x3f16980a	0.58825743
11	0x3db66806	0.0890656
12	0xbf145f15	-0.57957584
13	0x3e9ad4c1	0.30240443
14	0x3f6b4733	0.91905516
15	0xbe781344	-0.24226099
16	0xbf2631e5	-0.64919883
17	0xbe38041c	-0.17970318
18	0x3e175cf5	0.14781554
19	0x3e201d47	0.15636168
20	0x3e243593	0.16036062
21	0x3e976030	0.29565573
22	0x3dfea1fb	0.12433239
23	0x3e1a6239	0.15076531
24	0x3f03e30b	0.51518315
25	0x3e52d999	0.2059082
26	0x3f2e6e52	0.68137085
27	0x3d64cc93	0.05585916
28	0x3e92aa86	0.28645724
29	0x3f23da7f	0.64005274
30	0x3ef6e9d8	0.48225284
31	0x3ca5eb03	0.020253664
32	0x3f00ce3e	0.503147
33	0xbef12fc0	-0.47106743
34	0x3ef055f7	0.46940586
35	0xbeb1ae0d	-0.34703103
36	0x3e88f4fe	0.26749414
37	0x3f2f26ca	0.6841856
38	0xbeb4e872	-0.35333592
39	0x3e748548	0.23878968
40	0x3efced78	0.49399924
41	0x3ee4556b	0.4459642
42	0xbf1ccc16	-0.6124891
43	0xbe47842d	-0.19484015
44	0x3ebf8384	0.37405026
45	0x3f499bbe	0.7875327
46	0x3ec8df06	0.39232653
47	0x3e9914e0	0.2989874
48	0x3f1d6ed5	0.6149724
49	0xbe765a55	-0.24057896
50	0xbe9ab46b	-0.30215773
51	0x3e0ddf55	0.13854726
52	0x3e9e219b	0.30885014
53	0x3e9e0671	0.3086429
54	0x3f224110	0.6338053
55	0x3eef2eb5	0.46715322
56	0x3e894a1f	0.26814362
57	0xbd8871d6	-0.066623375
58	0x3e740e8b	0.23833673
59	0xbe4b0d39	-0.19829263
60	0x3e588aa4	0.21146637
61	0x3f0c955e	0.54915416
62	0xbde4d086	-0.11172585
63	0x3ed72976	0.4202382
64	0x3f89c723	1.0763897
65	0xbe58f315	-0.21186478
66	0xbaf44000	-0.0018634796
67	0xbd40f24e	-0.04710608
68	0xbde84409	-0.11341102
69	0x3f08ebf1	0.5348502
70	0xbe478df7	-0.19487749
71	0xbf0acaff	-0.54216
72	0x3ee5fd40	0.44919777
73	0xbe74e9d0	-0.23917317
74	0x3e66bf51	0.22533919
75	0xbe91d7b5	-0.28484884
76	0x3f801249	1.000558
77	0xbef59c4b	-0.47970805
78	0xbd5f93d5	-0.054584343
79	0xbef5a237	-0.47975323
80	0xbef5909e	-0.47961897
81	0xbf328a64	-0.6974242
82	0xbe9eb2ac	-0.3099569
83	0x3f20ede0	0.6286297
84	0xbed8a8ab	-0.42316183
85	0x3f49fc53	0.7890064
86	0xbf0d98ce	-0.55311286
87	0xbe5b53d1	-0.21418692
88	0xbe1338ad	-0.14377089
89	0x3f1a2bf2	0.60223305
90	0xbd87972a	-0.06620629
91	0x3e30060a	0.17189804
92	0x3e94c86a	0.29059154
93	0xbe637ec4	-0.22216326
94	0xbdfdc461	-0.12390972
95	0x3ec133f0	0.37734938
96	0x3f4b734d	0.7947281
97	0x3f1e83da	0.6191994
98	0xbd8e64cc	-0.06952819
99	0xbec44544	-0.38334095
100	0x3e5a5948	0.2132312
101	0xbe2733a4	-0.16328293
102	0x3e31ba8f	0.17356323
103	0xbd226e97	-0.039656248
104	0x3ddb110c	0.10696611
105	0x3e115981	0.141943
106	0xbc14477b	-0.009050245
107	0x3eba2ea9	0.36363724
108	0x3eeaffa2	0.45898157
109	0x3d4bd136	0.049760066
110	0xbde4fd05	-0.11181072
111	0x3ef08c4b	0.46982035
112	0x3bd094df	0.006365403
113	0xbe33ed3d	-0.17570968
114	0xbe5e08e6	-0.21683082
115	0x3e22ffb5	0.15917857
116	0x3ef6489e	0.48102278
117	0x3f0caa50	0.54947376
118	0xbe1666f2	-0.14687708
119	0x3f0fb326	0.56132734
120	0x3dc10eb0	0.094266295
121	0xbf2b05bb	-0.6680562
122	0xbea72f2e	-0.32653183
123	0xbe8d0073	-0.27539405
124	0x3f0a8e68	0.54123545
125	0xbeb5eb5b	-0.35531124
126	0xbe12a82a	-0.14321962
127	0x3f3066d6	0.68906915
128	0xbec7f185	-0.39051452
129	0x3e641542	0.22273734
130	0x3f2b0164	0.66798997
131	0x3e4ef4ea	0.20210615
132	0x3f10a35b	0.5649926
133	0xbf2b05ca	-0.6680571
134	0x3f7b8cf8	0.98261976
135	0xbd8fa830	-0.07014501
136	0x3f71ebec	0.94500613
137	0x3f782e56	0.96945703
138	0x3f471ff5	0.7778314
139	0xbec95ac4	-0.3932706
140	0x3db28771	0.0871724
141	0x3f05b37c	0.52226996
142	0xbe8a4f62	-0.2701369
143	0xbe4108aa	-0.18850961
144	0x3f25838b	0.64653844
145	0xbe5f5d27	-0.21812879
146	0x3e1e5fad	0.15466185
147	0x3e991f36	0.29906625
148	0xbf12a8e9	-0.57288986
149	0x3dd39437	0.10331004
150	0x3e789c90	0.24278474
151	0xbead927d	-0.33900824
152	0x3e69e5b5	0.22841533
153	0xbeba46e5	-0.36382213
154	0xbeb770f9	-0.3582838
155	0xbce5008c	-0.027954362
156	0x3efc897f	0.4932365
157	0x3e4d0cf3	0.20024471
158	0x3e3fc347	0.18726836
159	0xbed39d5b	-0.4133099
160	0x3c51eb90	0.01281251
161	0x3f49fa56	0.7889761
162	0x3f13f388	0.57793474
163	0x3ec239f0	0.37934828
164	0x3edabe94	0.42723525
165	0x3e92bbab	0.28658804
166	0xbf6770da	-0.9040657
167	0x3f0217b5	0.50817424
168	0xbea5b672	-0.32365757
169	0xbc9baf98	-0.019004628
170	0xbeb70578	-0.3574636
171	0x3f1974e7	0.59944004
172	0x3e51f4d4	0.20503551
173	0x3ef01fd7	0.46899292
174	0x3e47c423	0.19508414
175	0xbf0e8c06	-0.5568241
176	0xbec916ec	-0.392753
177	0x3dd8e903	0.105913185
178	0xbed9112d	-0.42395917
179	0x3f0337d8	0.51257086
180	0xbf0735e0	-0.5281658
181	0xbf05834a	-0.52153456
182	0xbee0a255	-0.4387385
183	0xbf046ffa	-0.5173336
184	0x3ee89b56	0.45431012
185	0xbe85fd8a	-0.26169997
186	0x3c1a2b1a	0.00940969
187	0xbd9bc051	-0.07605041
188	0x3e5fad9e	0.21843573
189	0x3f165231	0.58719164
190	0xbedb391f	-0.42817017
191	0x3f5b0ed8	0.85569525
192	0x3df5871e	0.11988662
193	0x3f24bb9d	0.64348775
194	0x3f25e793	0.6480648
195	0x3e0e4fdc	0.13897651
196	0xbd44ca78	-0.04804465
197	0xbea17234	-0.31532443
198	0x3e492643	0.19643502
199	0xbe6a06d5	-0.22854169
200	0xbe6629e5	-0.22476919
201	0xbe6bc59b	-0.23024599
202	0x3e65736c	0.22407311
203	0xbf06117c	-0.5237043
204	0xbe417bed	-0.1889493
205	0x3f16504d	0.5871628
206	0x3e75bd08	0.23997891
207	0x3e9aed37	0.30259106
208	0xbe67577b	-0.22591965
209	0x3e2829d0	0.164222
210	0xbe8f3253	-0.27968082
211	0xbe1e07d3	-0.15432672
212	0x3ef1e0d8	0.47241855
213	0xbe398181	-0.18115808
214	0x3ca36ca3	0.019949263
215	0x3e496919	0.19668998
216	0x3f259031	0.64673144
217	0x3e7dbd57	0.24779259
218	0xbf167b8a	-0.58782256
219	0x3ebe6594	0.37186873
220	0xbede31d7	-0.433974
221	0x3d4a2053	0.049347233
222	0xbe018ead	-0.12652083
223	0x3f060d61	0.52364165
224	0xbe8104dd	-0.25199023
225	0xbe8952a5	-0.26820865
226	0x3ee971c2	0.45594603
227	0x3f187490	0.5955286
228	0x3f1da454	0.6157887
229	0x3ece8071	0.40332368
230	0x3e88e9f6	0.26740998
231	0x3e675851	0.22592284
232	0x3f2e1016	0.67993295
233	0x3eaf1344	0.34194386
234	0xbe0b1587	-0.13582431
235	0xbf2ba62e	-0.67050445
236	0xbecb5303	-0.3971177
237	0xbe9ea1b0	-0.30982733
238	0x3f1c7706	0.61119115
239	0xbecaecfa	-0.39633924
240	0x3f48e840	0.78479385
241	0x3ee5bfb2	0.44872814
242	0xbed5b4b5	-0.4173943
243	0xbe31f85d	-0.173799
244	0xbed6150a	-0.41812927
245	0xbe1b5f60	-0.15173101
246	0x3e862387	0.2619898
247	0xbf2baea4	-0.67063355
248	0x3ed199ad	0.40937558
249	0x3f4fb125	0.81129676
250	0x3efbce81	0.49180987
251	0x3eeaf724	0.45891678
252	0x3ec9b5cf	0.3939652
253	0xbf15553c	-0.5833318
254	0x3ef4e7ce	0.47833103
255	0xbd73e8c8	-0.05954817

l1.bias f4 [8]
0	0x3f650cbf	0.89472574
1	0x3ef59db7	0.4797189
2	0x3f2b03bb	0.6680257
3	0x3f80b48f	1.0055102
4	0x3f2ba534	0.67048955
5	0x3f233861	0.637579
6	0x3f19e297	0.60111374
7	0x3f17a208	0.59231615

l2.weight f4 [8, 8]
0	0x3e856ca2	0.26059443
1	0x3f044acc	0.5167663
2	0x3fa7a145	1.309609
3	0xbf9eef8e	-1.2416856
4	0x3f07911b	0.5295579
5	0x3dee5388	0.11637026
6	0x3f7c68e9	0.9859758
7	0x3f5f26df	0.8716869
8	0x3f3bd1fa	0.73367274
9	0x3f42e301	0.7612763
10	0xbdf1dfd9	-0.11810274
11	0xbe04c4d5	-0.1296571
12	0xbfaa6964	-1.3313413
13	0x3f97a22a	1.1846364
14	0x3f14823d	0.5801123
15	0xbe135989	-0.14389624
16	0x3ef6115a	0.48060113
17	0xbf6cc083	-0.9248125
18	0xbd63b416	-0.055591665
19	0x3e513eff	0.20434187
20	0xbf269c6e	-0.6508244
21	0x3f932891	1.1496755
22	0xbf50eaf3	-0.81608504
23	0x3e9364be	0.28787798
24	0xbf2bf8bb	-0.6717641
25	0xbe7c30bb	-0.24627964
26	0x3f76d036	0.96411455
27	0x3f831b96	1.0242794
28	0xbebdf1af	-0.37098452
29	0x3f5a1718	0.8519149
30	0xbec2e3d8	-0.38064456
31	0x3f4ba974	0.7955544
32	0x3f117b96	0.568292
33	0xbf55d434	-0.8352692
34	0x3f24d654	0.6438954
35	0xbf79a7d9	-0.9752174
36	0xbf19d386	-0.60088384
37	0x3f60918c	0.87722087
38	0x3e3996ca	0.18123928
39	0xbefe795e	-0.4970197
40	0x3f60f433	0.8787262
41	0x3f86f70e	1.0544145
42	0xbf94c50e	-1.1622636
43	0x3e03b55b	0.1286215
44	0xbe7c9a3d	-0.24668212
45	0x3f2b01e8	0.66799784
46	0x3f959542	1.1686175
47	0x3f4ff58b	0.81234044
48	0x3c75312f	0.01496534
49	0x3dbff8ff	0.09373664
50	0x3dfb4c4c	0.12270412
51	0xbed37448	-0.41299653
52	0xbef50fca	-0.4786361
53	0x3f2262a4	0.63431764
54	0xbec49957	-0.3839824
55	0x3f81b048	1.0131922
56	0x3fd46409	1.6593028
57	0xbf86252f	-1.0480098
58	0x3f85001d	1.039066
59	0x3fd20d33	1.6410278
60	0x3f43d540	0.7649727
61	0xbd3a0822	-0.045417912
62	0xbf708d57	-0.9396567
63	0x3efe9092	0.49719673

l2.bias f4 [8]
0	0xbf021837	-0.508182
1	0x3ed3d5eb	0.41374144
2	0x3f3a4698	0.7276397
3	0xbdf1830a	-0.11792572
4	0x3e6417ce	0.22274706
5	0xbd81d69a	-0.0633976
6	0xbebc616a	-0.3679307
7	0x3f4e1e4f	0.80515

l3.weight f4 [11, 8]
0	0x3eb6841e	0.35647672
1	0xbf92f6b7	-1.1481541
2	0xbfa871b1	-1.3159696
3	0xbf33fc3d	-0.7030676
4	0xbcaa2975	-0.020771721
5	0xbf42ed35	-0.761432
6	0x3e4cc55c	0.19997162
7	0x3d9554f4	0.07291594
8	0xbfd899ce	-1.6921937
9	0x3e3981ae	0.18115875
10	0x3f8f8cd2	1.121485
11	0xc02a5576	-2.6614661
12	0x3ef3dbd4	0.47628653
13	0xbeeeb8a9	-0.4662526
14	0xbf2fdf4f	-0.68700117
15	0x3e30ada9	0.17253746
16	0x3f3ffe23	0.74997157
17	0xbf9bed07	-1.218171
18	0xbf1d7199	-0.6150146
19	0xbfb271ec	-1.3941016
20	0xbed9c32e	-0.42531723
21	0x3ed67996	0.41889638
22	0xbf24467b	-0.64170045
23	0xbfb3a448	-1.403451
24	0xbebcca3a	-0.36873037
25	0xbda61e0f	-0.08111202
26	0x3ebd05e9	0.36918572
27	0xbf68ed3e	-0.90987
28	0x3f28b753	0.6590473
29	0x3d9efd0d	0.07763109
30	0x3e496262	0.19666436
31	0xbf05a85c	-0.5221002
32	0xbe07f345	-0.13276394
33	0x3dbaf13b	0.09128042
34	0xbf860ecf	-1.0473269
35	0x3ed62b6c	0.41830003
36	0xbf49a9b7	-0.7877459
37	0xbe0f3920	-0.13986635
38	0x3f085ea7	0.5326943
39	0xbf8efcc4	-1.1170888
40	0xbecad482	-0.39615256
41	0x3e526e2b	0.20549838
42	0x3e62e69d	0.22158284
43	0x3ede0764	0.43365014
44	0x3ee6c8a3	0.4507495
45	0xbfb96ca3	-1.4486278
46	0x3eaeae3f	0.34117314
47	0xbf1fc664	-0.62412095
48	0xbf20de1d	-0.6283892
49	0x3f67f913	0.9061443
50	0xbeda0202	-0.42579657
51	0xbfc1d03b	-1.5141672
52	0xbfd4fb2c	-1.6639152
53	0x3f44b440	0.7683754
54	0xbf600548	-0.8750806
55	0xbf83c7fc	-1.0295405
56	0xbf00a491	-0.5025111
57	0xbf7b2542	-0.98103726
58	0x3eda5ec4	0.42650425
59	0x3f38a7e4	0.7213118
60	0xbf84e120	-1.0381203
61	0xbfaf31d9	-1.3687087
62	0xbf8dc318	-1.1075163
63	0x3e9694d2	0.29410416
64	0xbfb4c9bd	-1.4124066
65	0xbe179414	-0.14802581
66	0x3f1c1b02	0.6097871
67	0x3e47ef84	0.19524962
68	0xbf6183dd	-0.8809183
69	0x3ebada39	0.36494616
70	0x3f19f919	0.6014572
71	0xbea22bda	-0.3167408
72	0x3e0a8dc4	0.13530642
73	0xbf0a872a	-0.54112494
74	0xbed7fdc3	-0.42185792
75	0xbfa31dda	-1.2743485
76	0xbf73af99	-0.95189816
77	0x3eafbc80	0.34323502
78	0x3e6536b6	0.22384152
79	0xbe9e04a8	-0.30862927
80	0xbfcf08ab	-1.617452
81	0xbf2f409d	-0.6845797
82	0xbfc1b4b8	-1.5133276
83	0xbff1a155	-1.887736
84	0xbfa4425a	-1.2832749
85	0x3dcf2caa	0.10115941
86	0xbedeb323	-0.43496045
87	0x3f5d0f30	0.863513

l3.bias f4 [11]
0	0xbe8971ba	-0.2684458
1	0x3e9c949a	0.30582124
2	0x3ee95634	0.4557358
3	0xbf0f2e13	-0.5592968
4	0xbe618caf	-0.22026323
5	0xbe9e4463	-0.3091155
6	0x3ee28e45	0.44249168
7	0x3eff0109	0.49805477
8	0xbe380d69	-0.17973866
9	0xbf50a7e2	-0.8150617
10	0x3f42c8c5	0.760876
